…
I0625 20:55:02.811044 12648 net.cpp:313] The NetState phase (0) differed from the phase (1) specified by a rule in layer mnist
I0625 20:55:02.811044 12648 net.cpp:313] The NetState phase (0) differed from the phase (1) specified by a rule in layer accuracy
I0625 20:55:02.811044 12648 net.cpp:49] Initializing net from parameters: 
name: "LeNet"
state {
  phase: TRAIN
}
layer {
  name: "mnist"
  type: "Data"
  top: "data"
  top: "label"
  include {
    phase: TRAIN
  }
  transform_param {
    scale: 0.00390625
  }
  data_param {
    source: "examples/mnist/mnist_train_lmdb"
    batch_size: 64
    backend: LMDB
  }
}
layer {
  name: "conv1"
  type: "Convolution"
  bottom: "data"
  top: "conv1"
  param {
    lr_mult: 1
  }
  param {
    lr_mult: 2
  }
  convolution_param {
    num_output: 20
    kernel_size: 5
    stride: 1
    weight_filler {
      type: "xavier"
    }
    bias_filler {
      type: "constant"
    }
  }
}
layer {
  name: "pool1"
  type: "Pooling"
  bottom: "conv1"
  top: "pool1"
  pooling_param {
    pool: MAX
    kernel_size: 2
    stride: 2
  }
}
layer {
  name: "conv2"
  type: "Convolution"
  bottom: "pool1"
  top: "conv2"
  param {
    lr_mult: 1
  }
  param {
    lr_mult: 2
  }
  convolution_param {
    num_output: 50
    kernel_size: 5
    stride: 1
    weight_filler {
      type: "xavier"
    }
    bias_filler {
      type: "constant"
    }
  }
}
layer {
  name: "pool2"
  type: "Pooling"
  bottom: "conv2"
  top: "pool2"
  pooling_param {
    pool: MAX
    kernel_size: 2
    stride: 2
  }
}
layer {
  name: "ip1"
  type: "InnerProduct"
  bottom: "pool2"
  top: "ip1"
  param {
    lr_mult: 1
  }
  param {
    lr_mult: 2
  }
  inner_product_param {
    num_output: 500
    weight_filler {
      type: "xavier"
    }
    bias_filler {
      type: "constant"
    }
  }
}
layer {
  name: "relu1"
  type: "ReLU"
  bottom: "ip1"
  top: "ip1"
}
layer {
  name: "ip2"
  type: "InnerProduct"
  bottom: "ip1"
  top: "ip2"
  param {
    lr_mult: 1
  }
  param {
    lr_mult: 2
  }
  inner_product_param {
    num_output: 10
    weight_filler {
      type: "xavier"
    }
    bias_filler {
      type: "constant"
    }
  }
}
layer {
  name: "loss"
  type: "SoftmaxWithLoss"
  bottom: "ip2"
  bottom: "label"
  top: "loss"
}
I0625 20:55:02.811044 12648 layer_factory.hpp:77] Creating layer mnist
I0625 20:55:02.811044 12648 common.cpp:37] System entropy source not available, using fallback algorithm to generate seed instead.
I0625 20:55:02.811044 12648 net.cpp:91] Creating Layer mnist
I0625 20:55:02.811044 12648 net.cpp:399] mnist -> data
I0625 20:55:02.811044 10476 db_lmdb.cpp:52] Opened lmdb examples/mnist/mnist_train_lmdb
I0625 20:55:02.811044 12648 net.cpp:399] mnist -> label
I0625 20:55:02.811044 12648 data_layer.cpp:41] output data size: 64,1,28,28
I0625 20:55:02.826612 12648 net.cpp:141] Setting up mnist
I0625 20:55:02.826612 12648 net.cpp:148] Top shape: 64 1 28 28 (50176)
I0625 20:55:02.826612 12648 net.cpp:148] Top shape: 64 (64)
I0625 20:55:02.826612 12648 net.cpp:156] Memory required for data: 200960
I0625 20:55:02.826612 12648 layer_factory.hpp:77] Creating layer conv1
I0625 20:55:02.826612 12648 net.cpp:91] Creating Layer conv1
I0625 20:55:02.826612 12648 net.cpp:425] conv1 <- data
I0625 20:55:02.826612 12648 net.cpp:399] conv1 -> conv1
I0625 20:55:02.826612 12648 net.cpp:141] Setting up conv1
I0625 20:55:02.826612 12648 net.cpp:148] Top shape: 64 20 24 24 (737280)
I0625 20:55:02.826612 12648 net.cpp:156] Memory required for data: 3150080
I0625 20:55:02.826612 12648 layer_factory.hpp:77] Creating layer pool1
I0625 20:55:02.826612 12648 net.cpp:91] Creating Layer pool1
I0625 20:55:02.826612 12648 net.cpp:425] pool1 <- conv1
I0625 20:55:02.826612 12648 net.cpp:399] pool1 -> pool1
I0625 20:55:02.826612 12648 net.cpp:141] Setting up pool1
I0625 20:55:02.826612 12648 net.cpp:148] Top shape: 64 20 12 12 (184320)
I0625 20:55:02.826612 12648 net.cpp:156] Memory required for data: 3887360
I0625 20:55:02.826612 12648 layer_factory.hpp:77] Creating layer conv2
I0625 20:55:02.826612 12648 net.cpp:91] Creating Layer conv2
I0625 20:55:02.826612 12648 net.cpp:425] conv2 <- pool1
I0625 20:55:02.826612 12648 net.cpp:399] conv2 -> conv2
I0625 20:55:02.842241 12648 net.cpp:141] Setting up conv2
I0625 20:55:02.842241 12648 net.cpp:148] Top shape: 64 50 8 8 (204800)
I0625 20:55:02.842241 12648 net.cpp:156] Memory required for data: 4706560
I0625 20:55:02.842241 12648 layer_factory.hpp:77] Creating layer pool2
I0625 20:55:02.842241 12648 net.cpp:91] Creating Layer pool2
I0625 20:55:02.842241 12648 net.cpp:425] pool2 <- conv2
I0625 20:55:02.842241 12648 net.cpp:399] pool2 -> pool2
I0625 20:55:02.842241 12648 net.cpp:141] Setting up pool2
I0625 20:55:02.842241 12648 net.cpp:148] Top shape: 64 50 4 4 (51200)
I0625 20:55:02.842241 12648 net.cpp:156] Memory required for data: 4911360
I0625 20:55:02.842241 12648 layer_factory.hpp:77] Creating layer ip1
I0625 20:55:02.842241 12648 net.cpp:91] Creating Layer ip1
I0625 20:55:02.842241 12648 net.cpp:425] ip1 <- pool2
I0625 20:55:02.842241 12648 net.cpp:399] ip1 -> ip1
I0625 20:55:02.842241 12648 net.cpp:141] Setting up ip1
I0625 20:55:02.842241 12648 net.cpp:148] Top shape: 64 500 (32000)
I0625 20:55:02.842241 12648 net.cpp:156] Memory required for data: 5039360
I0625 20:55:02.842241 12648 layer_factory.hpp:77] Creating layer relu1
I0625 20:55:02.842241 12648 net.cpp:91] Creating Layer relu1
I0625 20:55:02.842241 12648 net.cpp:425] relu1 <- ip1
I0625 20:55:02.842241 12648 net.cpp:386] relu1 -> ip1 (in-place)
I0625 20:55:02.842241 12648 net.cpp:141] Setting up relu1
I0625 20:55:02.842241 12648 net.cpp:148] Top shape: 64 500 (32000)
I0625 20:55:02.842241 12648 net.cpp:156] Memory required for data: 5167360
I0625 20:55:02.842241 12648 layer_factory.hpp:77] Creating layer ip2
I0625 20:55:02.842241 12648 net.cpp:91] Creating Layer ip2
I0625 20:55:02.842241 12648 net.cpp:425] ip2 <- ip1
I0625 20:55:02.842241 12648 net.cpp:399] ip2 -> ip2
I0625 20:55:02.842241 12648 net.cpp:141] Setting up ip2
I0625 20:55:02.842241 12648 net.cpp:148] Top shape: 64 10 (640)
I0625 20:55:02.842241 12648 net.cpp:156] Memory required for data: 5169920
I0625 20:55:02.842241 12648 layer_factory.hpp:77] Creating layer loss
I0625 20:55:02.842241 12648 net.cpp:91] Creating Layer loss
I0625 20:55:02.842241 12648 net.cpp:425] loss <- ip2
I0625 20:55:02.842241 12648 net.cpp:425] loss <- label
I0625 20:55:02.842241 12648 net.cpp:399] loss -> loss
I0625 20:55:02.842241 12648 layer_factory.hpp:77] Creating layer loss
…
I0625 20:55:02.842241 12648 solver.cpp:181] Creating test net (#0) specified by net file: examples/mnist/lenet_train_test.prototxt
I0625 20:55:02.842241 12648 net.cpp:313] The NetState phase (1) differed from the phase (0) specified by a rule in layer mnist
I0625 20:55:02.842241 12648 net.cpp:49] Initializing net from parameters: 
name: "LeNet"
state {
  phase: TEST
}
layer {
  name: "mnist"
  type: "Data"
  top: "data"
  top: "label"
  include {
    phase: TEST
  }
  transform_param {
    scale: 0.00390625
  }
  data_param {
    source: "examples/mnist/mnist_test_lmdb"
    batch_size: 100
    backend: LMDB
  }
}
layer {
  name: "conv1"
  type: "Convolution"
  bottom: "data"
  top: "conv1"
  param {
    lr_mult: 1
  }
  param {
    lr_mult: 2
  }
  convolution_param {
    num_output: 20
    kernel_size: 5
    stride: 1
    weight_filler {
      type: "xavier"
    }
    bias_filler {
      type: "constant"
    }
  }
}
layer {
  name: "pool1"
  type: "Pooling"
  bottom: "conv1"
  top: "pool1"
  pooling_param {
    pool: MAX
    kernel_size: 2
    stride: 2
  }
}
layer {
  name: "conv2"
  type: "Convolution"
  bottom: "pool1"
  top: "conv2"
  param {
    lr_mult: 1
  }
  param {
    lr_mult: 2
  }
  convolution_param {
    num_output: 50
    kernel_size: 5
    stride: 1
    weight_filler {
      type: "xavier"
    }
    bias_filler {
      type: "constant"
    }
  }
}
layer {
  name: "pool2"
  type: "Pooling"
  bottom: "conv2"
  top: "pool2"
  pooling_param {
    pool: MAX
    kernel_size: 2
    stride: 2
  }
}
layer {
  name: "ip1"
  type: "InnerProduct"
  bottom: "pool2"
  top: "ip1"
  param {
    lr_mult: 1
  }
  param {
    lr_mult: 2
  }
  inner_product_param {
    num_output: 500
    weight_filler {
      type: "xavier"
    }
    bias_filler {
      type: "constant"
    }
  }
}
layer {
  name: "relu1"
  type: "ReLU"
  bottom: "ip1"
  top: "ip1"
}
layer {
  name: "ip2"
  type: "InnerProduct"
  bottom: "ip1"
  top: "ip2"
  param {
    lr_mult: 1
  }
  param {
    lr_mult: 2
  }
  inner_product_param {
    num_output: 10
    weight_filler {
      type: "xavier"
    }
    bias_filler {
      type: "constant"
    }
  }
}
layer {
  name: "accuracy"
  type: "Accuracy"
  bottom: "ip2"
  bottom: "label"
  top: "accuracy"
  include {
    phase: TEST
  }
}
layer {
  name: "loss"
  type: "SoftmaxWithLoss"
  bottom: "ip2"
  bottom: "label"
  top: "loss"
}
I0625 20:55:02.857864 12648 layer_factory.hpp:77] Creating layer mnist
I0625 20:55:02.857864 12648 net.cpp:91] Creating Layer mnist
I0625 20:55:02.857864 12648 net.cpp:399] mnist -> data
I0625 20:55:02.857864 12648 net.cpp:399] mnist -> label
I0625 20:55:02.857864 15824 db_lmdb.cpp:52] Opened lmdb examples/mnist/mnist_test_lmdb
I0625 20:55:02.857864 12648 data_layer.cpp:41] output data size: 100,1,28,28
I0625 20:55:02.857864 12648 net.cpp:141] Setting up mnist
I0625 20:55:02.857864 12648 net.cpp:148] Top shape: 100 1 28 28 (78400)
I0625 20:55:02.857864 12648 net.cpp:148] Top shape: 100 (100)
I0625 20:55:02.857864 12648 net.cpp:156] Memory required for data: 314000
I0625 20:55:02.857864 12648 layer_factory.hpp:77] Creating layer label_mnist_1_split
I0625 20:55:02.857864 12648 net.cpp:91] Creating Layer label_mnist_1_split
I0625 20:55:02.857864 12648 net.cpp:425] label_mnist_1_split <- label
I0625 20:55:02.857864 12648 net.cpp:399] label_mnist_1_split -> label_mnist_1_split_0
I0625 20:55:02.857864 12648 net.cpp:399] label_mnist_1_split -> label_mnist_1_split_1
I0625 20:55:02.857864 12648 net.cpp:141] Setting up label_mnist_1_split
I0625 20:55:02.857864 12648 net.cpp:148] Top shape: 100 (100)
I0625 20:55:02.857864 12648 net.cpp:148] Top shape: 100 (100)
I0625 20:55:02.857864 12648 net.cpp:156] Memory required for data: 314800
I0625 20:55:02.857864 12648 layer_factory.hpp:77] Creating layer conv1
I0625 20:55:02.857864 12648 net.cpp:91] Creating Layer conv1
I0625 20:55:02.857864 12648 net.cpp:425] conv1 <- data
I0625 20:55:02.857864 12648 net.cpp:399] conv1 -> conv1
I0625 20:55:02.857864 12648 net.cpp:141] Setting up conv1
I0625 20:55:02.857864 12648 net.cpp:148] Top shape: 100 20 24 24 (1152000)
I0625 20:55:02.857864 12648 net.cpp:156] Memory required for data: 4922800
I0625 20:55:02.857864 12648 layer_factory.hpp:77] Creating layer pool1
I0625 20:55:02.857864 12648 net.cpp:91] Creating Layer pool1
I0625 20:55:02.857864 12648 net.cpp:425] pool1 <- conv1
I0625 20:55:02.857864 12648 net.cpp:399] pool1 -> pool1
I0625 20:55:02.857864 12648 net.cpp:141] Setting up pool1
I0625 20:55:02.857864 12648 net.cpp:148] Top shape: 100 20 12 12 (288000)
I0625 20:55:02.857864 12648 net.cpp:156] Memory required for data: 6074800
I0625 20:55:02.857864 12648 layer_factory.hpp:77] Creating layer conv2
I0625 20:55:02.857864 12648 net.cpp:91] Creating Layer conv2
I0625 20:55:02.857864 12648 net.cpp:425] conv2 <- pool1
I0625 20:55:02.857864 12648 net.cpp:399] conv2 -> conv2
I0625 20:55:02.857864 12648 net.cpp:141] Setting up conv2
I0625 20:55:02.857864 12648 net.cpp:148] Top shape: 100 50 8 8 (320000)
I0625 20:55:02.857864 12648 net.cpp:156] Memory required for data: 7354800
I0625 20:55:02.857864 12648 layer_factory.hpp:77] Creating layer pool2
I0625 20:55:02.857864 12648 net.cpp:91] Creating Layer pool2
I0625 20:55:02.857864 12648 net.cpp:425] pool2 <- conv2
I0625 20:55:02.857864 12648 net.cpp:399] pool2 -> pool2
I0625 20:55:02.857864 12648 net.cpp:141] Setting up pool2
I0625 20:55:02.857864 12648 net.cpp:148] Top shape: 100 50 4 4 (80000)
I0625 20:55:02.857864 12648 net.cpp:156] Memory required for data: 7674800
I0625 20:55:02.857864 12648 layer_factory.hpp:77] Creating layer ip1
I0625 20:55:02.857864 12648 net.cpp:91] Creating Layer ip1
I0625 20:55:02.857864 12648 net.cpp:425] ip1 <- pool2
I0625 20:55:02.857864 12648 net.cpp:399] ip1 -> ip1
I0625 20:55:02.857864 12648 net.cpp:141] Setting up ip1
I0625 20:55:02.857864 12648 net.cpp:148] Top shape: 100 500 (50000)
I0625 20:55:02.857864 12648 net.cpp:156] Memory required for data: 7874800
I0625 20:55:02.857864 12648 layer_factory.hpp:77] Creating layer relu1
I0625 20:55:02.857864 12648 net.cpp:91] Creating Layer relu1
I0625 20:55:02.857864 12648 net.cpp:425] relu1 <- ip1
I0625 20:55:02.857864 12648 net.cpp:386] relu1 -> ip1 (in-place)
I0625 20:55:02.857864 12648 net.cpp:141] Setting up relu1
I0625 20:55:02.857864 12648 net.cpp:148] Top shape: 100 500 (50000)
I0625 20:55:02.857864 12648 net.cpp:156] Memory required for data: 8074800
I0625 20:55:02.857864 12648 layer_factory.hpp:77] Creating layer ip2
I0625 20:55:02.857864 12648 net.cpp:91] Creating Layer ip2
I0625 20:55:02.857864 12648 net.cpp:425] ip2 <- ip1
I0625 20:55:02.857864 12648 net.cpp:399] ip2 -> ip2
I0625 20:55:02.873492 12648 net.cpp:141] Setting up ip2
I0625 20:55:02.873492 12648 net.cpp:148] Top shape: 100 10 (1000)
I0625 20:55:02.873492 12648 net.cpp:156] Memory required for data: 8078800
I0625 20:55:02.873492 12648 layer_factory.hpp:77] Creating layer ip2_ip2_0_split
I0625 20:55:02.873492 12648 net.cpp:91] Creating Layer ip2_ip2_0_split
I0625 20:55:02.873492 12648 net.cpp:425] ip2_ip2_0_split <- ip2
I0625 20:55:02.873492 12648 net.cpp:399] ip2_ip2_0_split -> ip2_ip2_0_split_0
I0625 20:55:02.873492 12648 net.cpp:399] ip2_ip2_0_split -> ip2_ip2_0_split_1
I0625 20:55:02.873492 12648 net.cpp:141] Setting up ip2_ip2_0_split
I0625 20:55:02.873492 12648 net.cpp:148] Top shape: 100 10 (1000)
I0625 20:55:02.873492 12648 net.cpp:148] Top shape: 100 10 (1000)
I0625 20:55:02.873492 12648 net.cpp:156] Memory required for data: 8086800
I0625 20:55:02.873492 12648 layer_factory.hpp:77] Creating layer accuracy
I0625 20:55:02.873492 12648 net.cpp:91] Creating Layer accuracy
I0625 20:55:02.873492 12648 net.cpp:425] accuracy <- ip2_ip2_0_split_0
I0625 20:55:02.873492 12648 net.cpp:425] accuracy <- label_mnist_1_split_0
I0625 20:55:02.873492 12648 net.cpp:399] accuracy -> accuracy
…
