…
I0704 09:56:50.258167  7524 solver.cpp:91] Creating training net from net file: train_coupled_clusters_loss.prototxt
I0704 09:56:50.259166  7524 net.cpp:313] The NetState phase (0) differed from the phase (1) specified by a rule in layer data
I0704 09:56:50.259166  7524 net.cpp:49] Initializing net from parameters: 
name: "VGG_CNN_M_1024"
state {
  phase: TRAIN
}
layer {
  name: "data"
  type: "MemoryData"
  top: "data"
  top: "label"
  top: "label2"
  include {
    phase: TRAIN
  }
  memory_data_param {
    batch_size: 50
    channels: 3
    height: 227
    width: 227
    num_tasks: 2
  }
}
layer {
  name: "conv1"
  type: "Convolution"
  bottom: "data"
  top: "conv1"
  param {
    lr_mult: 0
    decay_mult: 0
  }
  param {
    lr_mult: 0
    decay_mult: 0
  }
  convolution_param {
    num_output: 96
    kernel_size: 11
    stride: 4
    weight_filler {
      type: "msra"
    }
    bias_filler {
      type: "constant"
      value: 0
    }
  }
}
layer {
  name: "relu1"
  type: "ReLU"
  bottom: "conv1"
  top: "conv1"
}
layer {
  name: "norm1"
  type: "LRN"
  bottom: "conv1"
  top: "norm1"
  lrn_param {
    local_size: 5
    alpha: 0.0005
    beta: 0.75
    k: 2
  }
}
layer {
  name: "pool1"
  type: "Pooling"
  bottom: "norm1"
  top: "pool1"
  pooling_param {
    pool: MAX
    kernel_size: 3
    stride: 2
  }
}
layer {
  name: "conv2"
  type: "Convolution"
  bottom: "pool1"
  top: "conv2"
  param {
    lr_mult: 0
    decay_mult: 0
  }
  param {
    lr_mult: 0
    decay_mult: 0
  }
  convolution_param {
    num_output: 256
    pad: 2
    kernel_size: 5
    group: 2
    weight_filler {
      type: "msra"
    }
    bias_filler {
      type: "constant"
      value: 0
    }
  }
}
layer {
  name: "relu2"
  type: "ReLU"
  bottom: "conv2"
  top: "conv2"
}
layer {
  name: "norm2"
  type: "LRN"
  bottom: "conv2"
  top: "norm2"
  lrn_param {
    local_size: 5
    alpha: 0.0005
    beta: 0.75
    k: 2
  }
}
layer {
  name: "pool2"
  type: "Pooling"
  bottom: "norm2"
  top: "pool2"
  pooling_param {
    pool: MAX
    kernel_size: 3
    stride: 2
  }
}
layer {
  name: "conv3"
  type: "Convolution"
  bottom: "pool2"
  top: "conv3"
  param {
    lr_mult: 0
    decay_mult: 0
  }
  param {
    lr_mult: 0
    decay_mult: 0
  }
  convolution_param {
    num_output: 384
    pad: 1
    kernel_size: 3
    weight_filler {
      type: "msra"
    }
    bias_filler {
      type: "constant"
      value: 0
    }
  }
}
layer {
  name: "relu3"
  type: "ReLU"
  bottom: "conv3"
  top: "conv3"
}
layer {
  name: "conv4"
  type: "Convolution"
  bottom: "conv3"
  top: "conv4"
  param {
    lr_mult: 0.1
    decay_mult: 0.1
  }
  param {
    lr_mult: 0.2
    decay_mult: 0
  }
  convolution_param {
    num_output: 384
    pad: 1
    kernel_size: 3
    group: 2
    weight_filler {
      type: "msra"
    }
    bias_filler {
      type: "constant"
      value: 0
    }
  }
}
layer {
  name: "relu4"
  type: "ReLU"
  bottom: "conv4"
  top: "conv4"
}
layer {
  name: "conv5"
  type: "Convolution"
  bottom: "conv4"
  top: "conv5"
  param {
    lr_mult: 0.1
    decay_mult: 0.1
  }
  param {
    lr_mult: 0.2
    decay_mult: 0
  }
  convolution_param {
    num_output: 256
    pad: 1
    kernel_size: 3
    group: 2
    weight_filler {
      type: "msra"
    }
    bias_filler {
      type: "constant"
      value: 0
    }
  }
}
layer {
  name: "relu5"
  type: "ReLU"
  bottom: "conv5"
  top: "conv5"
}
layer {
  name: "pool5"
  type: "Pooling"
  bottom: "conv5"
  top: "pool5"
  pooling_param {
    pool: MAX
    kernel_size: 3
    stride: 2
  }
}
layer {
  name: "fc6_2048"
  type: "InnerProduct"
  bottom: "pool5"
  top: "fc6"
  param {
    lr_mult: 1
    decay_mult: 1
  }
  param {
    lr_mult: 2
    decay_mult: 0
  }
  inner_product_param {
    num_output: 2048
    weight_filler {
      type: "gaussian"
      std: 0.005
    }
    bias_filler {
      type: "constant"
      value: 0
    }
  }
}
layer {
  name: "relu6"
  type: "ReLU"
  bottom: "fc6"
  top: "fc6"
}
layer {
  name: "drop6"
  type: "Dropout"
  bottom: "fc6"
  top: "fc6"
  dropout_param {
    dropout_ratio: 0.5
  }
}
layer {
  name: "fc7_1024"
  type: "InnerProduct"
  bottom: "fc6"
  top: "fc7"
  param {
    lr_mult: 1
    decay_mult: 1
  }
  param {
    lr_mult: 2
    decay_mult: 0
  }
  inner_product_param {
    num_output: 1024
    weight_filler {
      type: "gaussian"
      std: 0.005
    }
    bias_filler {
      type: "constant"
      value: 0
    }
  }
}
layer {
  name: "relu7"
  type: "ReLU"
  bottom: "fc7"
  top: "fc7"
}
layer {
  name: "drop7"
  type: "Dropout"
  bottom: "fc7"
  top: "fc7"
  dropout_param {
    dropout_ratio: 0.5
  }
}
layer {
  name: "conv4_2"
  type: "Convolution"
  bottom: "conv3"
  top: "conv4_2"
  param {
    lr_mult: 1
    decay_mult: 1
  }
  param {
    lr_mult: 2
    decay_mult: 0
  }
  convolution_param {
    num_output: 384
    pad: 1
    kernel_size: 3
    group: 2
    weight_filler {
      type: "msra"
    }
    bias_filler {
      type: "constant"
      value: 0
    }
  }
}
layer {
  name: "relu4_2"
  type: "ReLU"
  bottom: "conv4_2"
  top: "conv4_2"
}
layer {
  name: "conv5_2"
  type: "Convolution"
  bottom: "conv4_2"
  top: "conv5_2"
  param {
    lr_mult: 1
    decay_mult: 1
  }
  param {
    lr_mult: 2
    decay_mult: 0
  }
  convolution_param {
    num_output: 256
    pad: 1
    kernel_size: 3
    group: 2
    weight_filler {
      type: "msra"
    }
    bias_filler {
      type: "constant"
      value: 0
    }
  }
}
layer {
  name: "relu5_2"
  type: "ReLU"
  bottom: "conv5_2"
  top: "conv5_2"
}
layer {
  name: "pool5_2"
  type: "Pooling"
  bottom: "conv5_2"
  top: "pool5_2"
  pooling_param {
    pool: MAX
    kernel_size: 3
    stride: 2
  }
}
layer {
  name: "fc6_2"
  type: "InnerProduct"
  bottom: "pool5_2"
  top: "fc6_2"
  param {
    lr_mult: 1
    decay_mult: 1
  }
  param {
    lr_mult: 2
    decay_mult: 0
  }
  inner_product_param {
    num_output: 2048
    weight_filler {
      type: "gaussian"
      std: 0.005
    }
    bias_filler {
      type: "constant"
      value: 0
    }
  }
}
layer {
  name: "relu6_2"
  type: "ReLU"
  bottom: "fc6_2"
  top: "fc6_2"
}
layer {
  name: "drop6_2"
  type: "Dropout"
  bottom: "fc6_2"
  top: "fc6_2"
  dropout_param {
    dropout_ratio: 0.5
  }
}
layer {
  name: "fc7_2"
  type: "InnerProduct"
  bottom: "fc6_2"
  top: "fc7_2"
  param {
    lr_mult: 1
    decay_mult: 1
  }
  param {
    lr_mult: 2
    decay_mult: 0
  }
  inner_product_param {
    num_output: 1024
    weight_filler {
      type: "gaussian"
      std: 0.005
    }
    bias_filler {
      type: "constant"
      value: 0
    }
  }
}
layer {
  name: "relu7_2"
  type: "ReLU"
  bottom: "fc7_2"
  top: "fc7_2"
}
layer {
  name: "drop7_2"
  type: "Dropout"
  bottom: "fc7_2"
  top: "fc7_2"
  dropout_param {
    dropout_ratio: 0.5
  }
}
layer {
  name: "fc8_clf"
  type: "InnerProduct"
  bottom: "fc7"
  top: "fc8"
  param {
    lr_mult: 1
    decay_mult: 1
  }
  param {
    lr_mult: 20
    decay_mult: 0
  }
  include {
    phase: TRAIN
  }
  include {
    phase: TEST
  }
  inner_product_param {
    num_output: 250
    weight_filler {
      type: "gaussian"
      std: 0.01
    }
    bias_filler {
      type: "constant"
      value: 0
    }
  }
}
layer {
  name: "accuracy"
  type: "Accuracy"
  bottom: "fc8"
  bottom: "label"
  top: "accuracy"
  include {
    phase: TRAIN
  }
  include {
    phase: TEST
  }
}
layer {
  name: "loss1"
  type: "SoftmaxWithLoss"
  bottom: "fc8"
  bottom: "label"
  top: "loss"
  loss_weight: 0.5
  include {
    phase: TRAIN
  }
  include {
    phase: TEST
  }
}
layer {
  name: "fc7_2_normalization"
  type: "Normalization"
  bottom: "fc7_2"
  top: "fc7_2_normalized"
  normalization_param {
    norm: L2
    val: 2
  }
}
layer {
  name: "coupled_cluster_loss2"
  type: "CoupledClusterLoss"
  bottom: "fc7_2_normalized"
  bottom: "label2"
  top: "coupled_cluster_loss2"
  loss_weight: 0.5
  coupled_cluster_loss_param {
    margin: 0.4
    group_size: 10
    log_flag: false
  }
}
layer {
  name: "concat"
  type: "Concat"
  bottom: "fc7"
  bottom: "fc7_2"
  top: "fc7_concat"
  concat_param {
    axis: 1
  }
}
layer {
  name: "fc8_feat"
  type: "InnerProduct"
  bottom: "fc7_concat"
  top: "fc8_feat"
  param {
    lr_mult: 10
    decay_mult: 1
  }
  param {
    lr_mult: 20
    decay_mult: 0
  }
  include {
    phase: TRAIN
  }
  include {
    phase: TEST
  }
  inner_product_param {
    num_output: 1024
    weight_filler {
      type: "gaussian"
      std: 0.01
    }
    bias_filler {
      type: "constant"
      value: 0
    }
  }
}
layer {
  name: "fc8_feat_normalization"
  type: "Normalization"
  bottom: "fc8_feat"
  top: "fc8_feat_normalized"
  normalization_param {
    norm: L2
    val: 2
  }
}
layer {
  name: "coupled_cluster_loss_all"
  type: "CoupledClusterLoss"
  bottom: "fc8_feat_normalized"
  bottom: "label2"
  top: "coupled_cluster_loss_all"
  loss_weight: 1
  coupled_cluster_loss_param {
    margin: 0.4
    group_size: 10
  }
}
I0704 09:56:50.259166  7524 layer_factory.hpp:77] Creating layer data
I0704 09:56:50.259166  7524 net.cpp:91] Creating Layer data
I0704 09:56:50.259166  7524 net.cpp:399] data -> data
I0704 09:56:50.260166  7524 net.cpp:399] data -> label
I0704 09:56:50.260166  7524 net.cpp:399] data -> label2
I0704 09:56:50.274168  7524 net.cpp:141] Setting up data
I0704 09:56:50.275167  7524 net.cpp:148] Top shape: 50 3 227 227 (7729350)
I0704 09:56:50.275167  7524 net.cpp:148] Top shape: 50 (50)
I0704 09:56:50.275167  7524 net.cpp:148] Top shape: 50 (50)
I0704 09:56:50.275167  7524 net.cpp:156] Memory required for data: 30917800
I0704 09:56:50.275167  7524 layer_factory.hpp:77] Creating layer label_data_1_split
I0704 09:56:50.275167  7524 net.cpp:91] Creating Layer label_data_1_split
I0704 09:56:50.275167  7524 net.cpp:425] label_data_1_split <- label
I0704 09:56:50.275167  7524 net.cpp:399] label_data_1_split -> label_data_1_split_0
I0704 09:56:50.275167  7524 net.cpp:399] label_data_1_split -> label_data_1_split_1
I0704 09:56:50.275167  7524 net.cpp:141] Setting up label_data_1_split
I0704 09:56:50.275167  7524 net.cpp:148] Top shape: 50 (50)
I0704 09:56:50.275167  7524 net.cpp:148] Top shape: 50 (50)
I0704 09:56:50.275167  7524 net.cpp:156] Memory required for data: 30918200
I0704 09:56:50.275167  7524 layer_factory.hpp:77] Creating layer label2_data_2_split
I0704 09:56:50.275167  7524 net.cpp:91] Creating Layer label2_data_2_split
I0704 09:56:50.275167  7524 net.cpp:425] label2_data_2_split <- label2
I0704 09:56:50.275167  7524 net.cpp:399] label2_data_2_split -> label2_data_2_split_0
I0704 09:56:50.275167  7524 net.cpp:399] label2_data_2_split -> label2_data_2_split_1
I0704 09:56:50.275167  7524 net.cpp:141] Setting up label2_data_2_split
I0704 09:56:50.275167  7524 net.cpp:148] Top shape: 50 (50)
I0704 09:56:50.275167  7524 net.cpp:148] Top shape: 50 (50)
I0704 09:56:50.275167  7524 net.cpp:156] Memory required for data: 30918600
I0704 09:56:50.275167  7524 layer_factory.hpp:77] Creating layer conv1
I0704 09:56:50.275167  7524 net.cpp:91] Creating Layer conv1
I0704 09:56:50.275167  7524 net.cpp:425] conv1 <- data
I0704 09:56:50.275167  7524 net.cpp:399] conv1 -> conv1
I0704 09:56:50.275167  7524 common.cpp:37] System entropy source not available, using fallback algorithm to generate seed instead.
I0704 09:56:50.493180  7524 net.cpp:141] Setting up conv1
I0704 09:56:50.493180  7524 net.cpp:148] Top shape: 50 96 55 55 (14520000)
I0704 09:56:50.493180  7524 net.cpp:156] Memory required for data: 88998600
I0704 09:56:50.493180  7524 layer_factory.hpp:77] Creating layer relu1
I0704 09:56:50.493180  7524 net.cpp:91] Creating Layer relu1
I0704 09:56:50.493180  7524 net.cpp:425] relu1 <- conv1
I0704 09:56:50.494180  7524 net.cpp:386] relu1 -> conv1 (in-place)
I0704 09:56:50.494180  7524 net.cpp:141] Setting up relu1
I0704 09:56:50.494180  7524 net.cpp:148] Top shape: 50 96 55 55 (14520000)
I0704 09:56:50.494180  7524 net.cpp:156] Memory required for data: 147078600
I0704 09:56:50.494180  7524 layer_factory.hpp:77] Creating layer norm1
I0704 09:56:50.494180  7524 net.cpp:91] Creating Layer norm1
I0704 09:56:50.494180  7524 net.cpp:425] norm1 <- conv1
I0704 09:56:50.494180  7524 net.cpp:399] norm1 -> norm1
I0704 09:56:50.495180  7524 net.cpp:141] Setting up norm1
I0704 09:56:50.495180  7524 net.cpp:148] Top shape: 50 96 55 55 (14520000)
I0704 09:56:50.495180  7524 net.cpp:156] Memory required for data: 205158600
I0704 09:56:50.495180  7524 layer_factory.hpp:77] Creating layer pool1
I0704 09:56:50.495180  7524 net.cpp:91] Creating Layer pool1
I0704 09:56:50.495180  7524 net.cpp:425] pool1 <- norm1
I0704 09:56:50.495180  7524 net.cpp:399] pool1 -> pool1
I0704 09:56:50.495180  7524 net.cpp:141] Setting up pool1
I0704 09:56:50.495180  7524 net.cpp:148] Top shape: 50 96 27 27 (3499200)
I0704 09:56:50.495180  7524 net.cpp:156] Memory required for data: 219155400
I0704 09:56:50.495180  7524 layer_factory.hpp:77] Creating layer conv2
I0704 09:56:50.495180  7524 net.cpp:91] Creating Layer conv2
I0704 09:56:50.495180  7524 net.cpp:425] conv2 <- pool1
I0704 09:56:50.495180  7524 net.cpp:399] conv2 -> conv2
I0704 09:56:50.502180  7524 net.cpp:141] Setting up conv2
I0704 09:56:50.502180  7524 net.cpp:148] Top shape: 50 256 27 27 (9331200)
I0704 09:56:50.502180  7524 net.cpp:156] Memory required for data: 256480200
I0704 09:56:50.502180  7524 layer_factory.hpp:77] Creating layer relu2
I0704 09:56:50.502180  7524 net.cpp:91] Creating Layer relu2
I0704 09:56:50.502180  7524 net.cpp:425] relu2 <- conv2
I0704 09:56:50.502180  7524 net.cpp:386] relu2 -> conv2 (in-place)
I0704 09:56:50.503180  7524 net.cpp:141] Setting up relu2
I0704 09:56:50.503180  7524 net.cpp:148] Top shape: 50 256 27 27 (9331200)
I0704 09:56:50.503180  7524 net.cpp:156] Memory required for data: 293805000
I0704 09:56:50.503180  7524 layer_factory.hpp:77] Creating layer norm2
I0704 09:56:50.503180  7524 net.cpp:91] Creating Layer norm2
I0704 09:56:50.503180  7524 net.cpp:425] norm2 <- conv2
I0704 09:56:50.503180  7524 net.cpp:399] norm2 -> norm2
I0704 09:56:50.503180  7524 net.cpp:141] Setting up norm2
I0704 09:56:50.503180  7524 net.cpp:148] Top shape: 50 256 27 27 (9331200)
I0704 09:56:50.503180  7524 net.cpp:156] Memory required for data: 331129800
I0704 09:56:50.503180  7524 layer_factory.hpp:77] Creating layer pool2
I0704 09:56:50.503180  7524 net.cpp:91] Creating Layer pool2
I0704 09:56:50.503180  7524 net.cpp:425] pool2 <- norm2
I0704 09:56:50.503180  7524 net.cpp:399] pool2 -> pool2
I0704 09:56:50.503180  7524 net.cpp:141] Setting up pool2
I0704 09:56:50.503180  7524 net.cpp:148] Top shape: 50 256 13 13 (2163200)
I0704 09:56:50.503180  7524 net.cpp:156] Memory required for data: 339782600
I0704 09:56:50.503180  7524 layer_factory.hpp:77] Creating layer conv3
I0704 09:56:50.503180  7524 net.cpp:91] Creating Layer conv3
I0704 09:56:50.503180  7524 net.cpp:425] conv3 <- pool2
I0704 09:56:50.503180  7524 net.cpp:399] conv3 -> conv3
I0704 09:56:50.517181  7524 net.cpp:141] Setting up conv3
I0704 09:56:50.517181  7524 net.cpp:148] Top shape: 50 384 13 13 (3244800)
I0704 09:56:50.517181  7524 net.cpp:156] Memory required for data: 352761800
I0704 09:56:50.517181  7524 layer_factory.hpp:77] Creating layer relu3
I0704 09:56:50.517181  7524 net.cpp:91] Creating Layer relu3
I0704 09:56:50.517181  7524 net.cpp:425] relu3 <- conv3
I0704 09:56:50.517181  7524 net.cpp:386] relu3 -> conv3 (in-place)
I0704 09:56:50.518182  7524 net.cpp:141] Setting up relu3
I0704 09:56:50.518182  7524 net.cpp:148] Top shape: 50 384 13 13 (3244800)
I0704 09:56:50.518182  7524 net.cpp:156] Memory required for data: 365741000
I0704 09:56:50.518182  7524 layer_factory.hpp:77] Creating layer conv3_relu3_0_split
I0704 09:56:50.518182  7524 net.cpp:91] Creating Layer conv3_relu3_0_split
I0704 09:56:50.518182  7524 net.cpp:425] conv3_relu3_0_split <- conv3
I0704 09:56:50.518182  7524 net.cpp:399] conv3_relu3_0_split -> conv3_relu3_0_split_0
I0704 09:56:50.518182  7524 net.cpp:399] conv3_relu3_0_split -> conv3_relu3_0_split_1
I0704 09:56:50.518182  7524 net.cpp:141] Setting up conv3_relu3_0_split
I0704 09:56:50.518182  7524 net.cpp:148] Top shape: 50 384 13 13 (3244800)
I0704 09:56:50.518182  7524 net.cpp:148] Top shape: 50 384 13 13 (3244800)
I0704 09:56:50.518182  7524 net.cpp:156] Memory required for data: 391699400
I0704 09:56:50.518182  7524 layer_factory.hpp:77] Creating layer conv4
I0704 09:56:50.518182  7524 net.cpp:91] Creating Layer conv4
I0704 09:56:50.518182  7524 net.cpp:425] conv4 <- conv3_relu3_0_split_0
I0704 09:56:50.518182  7524 net.cpp:399] conv4 -> conv4
I0704 09:56:50.530182  7524 net.cpp:141] Setting up conv4
I0704 09:56:50.530182  7524 net.cpp:148] Top shape: 50 384 13 13 (3244800)
I0704 09:56:50.530182  7524 net.cpp:156] Memory required for data: 404678600
I0704 09:56:50.530182  7524 layer_factory.hpp:77] Creating layer relu4
I0704 09:56:50.530182  7524 net.cpp:91] Creating Layer relu4
I0704 09:56:50.530182  7524 net.cpp:425] relu4 <- conv4
I0704 09:56:50.530182  7524 net.cpp:386] relu4 -> conv4 (in-place)
I0704 09:56:50.531183  7524 net.cpp:141] Setting up relu4
I0704 09:56:50.531183  7524 net.cpp:148] Top shape: 50 384 13 13 (3244800)
I0704 09:56:50.531183  7524 net.cpp:156] Memory required for data: 417657800
I0704 09:56:50.531183  7524 layer_factory.hpp:77] Creating layer conv5
I0704 09:56:50.531183  7524 net.cpp:91] Creating Layer conv5
I0704 09:56:50.531183  7524 net.cpp:425] conv5 <- conv4
I0704 09:56:50.531183  7524 net.cpp:399] conv5 -> conv5
I0704 09:56:50.541182  7524 net.cpp:141] Setting up conv5
I0704 09:56:50.541182  7524 net.cpp:148] Top shape: 50 256 13 13 (2163200)
I0704 09:56:50.541182  7524 net.cpp:156] Memory required for data: 426310600
I0704 09:56:50.541182  7524 layer_factory.hpp:77] Creating layer relu5
I0704 09:56:50.541182  7524 net.cpp:91] Creating Layer relu5
I0704 09:56:50.541182  7524 net.cpp:425] relu5 <- conv5
I0704 09:56:50.541182  7524 net.cpp:386] relu5 -> conv5 (in-place)
I0704 09:56:50.541182  7524 net.cpp:141] Setting up relu5
I0704 09:56:50.541182  7524 net.cpp:148] Top shape: 50 256 13 13 (2163200)
I0704 09:56:50.541182  7524 net.cpp:156] Memory required for data: 434963400
I0704 09:56:50.541182  7524 layer_factory.hpp:77] Creating layer pool5
I0704 09:56:50.541182  7524 net.cpp:91] Creating Layer pool5
I0704 09:56:50.541182  7524 net.cpp:425] pool5 <- conv5
I0704 09:56:50.541182  7524 net.cpp:399] pool5 -> pool5
I0704 09:56:50.541182  7524 net.cpp:141] Setting up pool5
I0704 09:56:50.541182  7524 net.cpp:148] Top shape: 50 256 6 6 (460800)
I0704 09:56:50.541182  7524 net.cpp:156] Memory required for data: 436806600
I0704 09:56:50.541182  7524 layer_factory.hpp:77] Creating layer fc6_2048
I0704 09:56:50.541182  7524 net.cpp:91] Creating Layer fc6_2048
I0704 09:56:50.541182  7524 net.cpp:425] fc6_2048 <- pool5
I0704 09:56:50.541182  7524 net.cpp:399] fc6_2048 -> fc6
I0704 09:56:50.811198  7524 net.cpp:141] Setting up fc6_2048
I0704 09:56:50.811198  7524 net.cpp:148] Top shape: 50 2048 (102400)
I0704 09:56:50.811198  7524 net.cpp:156] Memory required for data: 437216200
I0704 09:56:50.811198  7524 layer_factory.hpp:77] Creating layer relu6
I0704 09:56:50.811198  7524 net.cpp:91] Creating Layer relu6
I0704 09:56:50.811198  7524 net.cpp:425] relu6 <- fc6
I0704 09:56:50.811198  7524 net.cpp:386] relu6 -> fc6 (in-place)
I0704 09:56:50.812198  7524 net.cpp:141] Setting up relu6
I0704 09:56:50.812198  7524 net.cpp:148] Top shape: 50 2048 (102400)
I0704 09:56:50.812198  7524 net.cpp:156] Memory required for data: 437625800
I0704 09:56:50.812198  7524 layer_factory.hpp:77] Creating layer drop6
I0704 09:56:50.812198  7524 net.cpp:91] Creating Layer drop6
I0704 09:56:50.812198  7524 net.cpp:425] drop6 <- fc6
I0704 09:56:50.812198  7524 net.cpp:386] drop6 -> fc6 (in-place)
I0704 09:56:50.812198  7524 net.cpp:141] Setting up drop6
I0704 09:56:50.812198  7524 net.cpp:148] Top shape: 50 2048 (102400)
I0704 09:56:50.812198  7524 net.cpp:156] Memory required for data: 438035400
I0704 09:56:50.812198  7524 layer_factory.hpp:77] Creating layer fc7_1024
I0704 09:56:50.812198  7524 net.cpp:91] Creating Layer fc7_1024
I0704 09:56:50.812198  7524 net.cpp:425] fc7_1024 <- fc6
I0704 09:56:50.812198  7524 net.cpp:399] fc7_1024 -> fc7
I0704 09:56:50.842200  7524 net.cpp:141] Setting up fc7_1024
I0704 09:56:50.842200  7524 net.cpp:148] Top shape: 50 1024 (51200)
I0704 09:56:50.842200  7524 net.cpp:156] Memory required for data: 438240200
I0704 09:56:50.842200  7524 layer_factory.hpp:77] Creating layer relu7
I0704 09:56:50.842200  7524 net.cpp:91] Creating Layer relu7
I0704 09:56:50.842200  7524 net.cpp:425] relu7 <- fc7
I0704 09:56:50.842200  7524 net.cpp:386] relu7 -> fc7 (in-place)
I0704 09:56:50.843200  7524 net.cpp:141] Setting up relu7
I0704 09:56:50.843200  7524 net.cpp:148] Top shape: 50 1024 (51200)
I0704 09:56:50.843200  7524 net.cpp:156] Memory required for data: 438445000
I0704 09:56:50.843200  7524 layer_factory.hpp:77] Creating layer drop7
I0704 09:56:50.843200  7524 net.cpp:91] Creating Layer drop7
I0704 09:56:50.843200  7524 net.cpp:425] drop7 <- fc7
I0704 09:56:50.843200  7524 net.cpp:386] drop7 -> fc7 (in-place)
I0704 09:56:50.843200  7524 net.cpp:141] Setting up drop7
I0704 09:56:50.843200  7524 net.cpp:148] Top shape: 50 1024 (51200)
I0704 09:56:50.843200  7524 net.cpp:156] Memory required for data: 438649800
I0704 09:56:50.843200  7524 layer_factory.hpp:77] Creating layer fc7_drop7_0_split
I0704 09:56:50.843200  7524 net.cpp:91] Creating Layer fc7_drop7_0_split
I0704 09:56:50.843200  7524 net.cpp:425] fc7_drop7_0_split <- fc7
I0704 09:56:50.843200  7524 net.cpp:399] fc7_drop7_0_split -> fc7_drop7_0_split_0
I0704 09:56:50.843200  7524 net.cpp:399] fc7_drop7_0_split -> fc7_drop7_0_split_1
I0704 09:56:50.843200  7524 net.cpp:141] Setting up fc7_drop7_0_split
I0704 09:56:50.843200  7524 net.cpp:148] Top shape: 50 1024 (51200)
I0704 09:56:50.843200  7524 net.cpp:148] Top shape: 50 1024 (51200)
I0704 09:56:50.843200  7524 net.cpp:156] Memory required for data: 439059400
I0704 09:56:50.843200  7524 layer_factory.hpp:77] Creating layer conv4_2
I0704 09:56:50.843200  7524 net.cpp:91] Creating Layer conv4_2
I0704 09:56:50.843200  7524 net.cpp:425] conv4_2 <- conv3_relu3_0_split_1
I0704 09:56:50.843200  7524 net.cpp:399] conv4_2 -> conv4_2
I0704 09:56:50.856200  7524 net.cpp:141] Setting up conv4_2
I0704 09:56:50.856200  7524 net.cpp:148] Top shape: 50 384 13 13 (3244800)
I0704 09:56:50.856200  7524 net.cpp:156] Memory required for data: 452038600
I0704 09:56:50.856200  7524 layer_factory.hpp:77] Creating layer relu4_2
I0704 09:56:50.856200  7524 net.cpp:91] Creating Layer relu4_2
I0704 09:56:50.856200  7524 net.cpp:425] relu4_2 <- conv4_2
I0704 09:56:50.856200  7524 net.cpp:386] relu4_2 -> conv4_2 (in-place)
I0704 09:56:50.856200  7524 net.cpp:141] Setting up relu4_2
I0704 09:56:50.856200  7524 net.cpp:148] Top shape: 50 384 13 13 (3244800)
I0704 09:56:50.856200  7524 net.cpp:156] Memory required for data: 465017800
I0704 09:56:50.856200  7524 layer_factory.hpp:77] Creating layer conv5_2
I0704 09:56:50.856200  7524 net.cpp:91] Creating Layer conv5_2
I0704 09:56:50.856200  7524 net.cpp:425] conv5_2 <- conv4_2
I0704 09:56:50.856200  7524 net.cpp:399] conv5_2 -> conv5_2
I0704 09:56:50.866201  7524 net.cpp:141] Setting up conv5_2
I0704 09:56:50.866201  7524 net.cpp:148] Top shape: 50 256 13 13 (2163200)
I0704 09:56:50.866201  7524 net.cpp:156] Memory required for data: 473670600
I0704 09:56:50.866201  7524 layer_factory.hpp:77] Creating layer relu5_2
I0704 09:56:50.866201  7524 net.cpp:91] Creating Layer relu5_2
I0704 09:56:50.866201  7524 net.cpp:425] relu5_2 <- conv5_2
I0704 09:56:50.866201  7524 net.cpp:386] relu5_2 -> conv5_2 (in-place)
I0704 09:56:50.866201  7524 net.cpp:141] Setting up relu5_2
I0704 09:56:50.866201  7524 net.cpp:148] Top shape: 50 256 13 13 (2163200)
I0704 09:56:50.866201  7524 net.cpp:156] Memory required for data: 482323400
I0704 09:56:50.866201  7524 layer_factory.hpp:77] Creating layer pool5_2
I0704 09:56:50.866201  7524 net.cpp:91] Creating Layer pool5_2
I0704 09:56:50.866201  7524 net.cpp:425] pool5_2 <- conv5_2
I0704 09:56:50.866201  7524 net.cpp:399] pool5_2 -> pool5_2
I0704 09:56:50.866201  7524 net.cpp:141] Setting up pool5_2
I0704 09:56:50.867202  7524 net.cpp:148] Top shape: 50 256 6 6 (460800)
I0704 09:56:50.867202  7524 net.cpp:156] Memory required for data: 484166600
I0704 09:56:50.867202  7524 layer_factory.hpp:77] Creating layer fc6_2
I0704 09:56:50.867202  7524 net.cpp:91] Creating Layer fc6_2
I0704 09:56:50.867202  7524 net.cpp:425] fc6_2 <- pool5_2
I0704 09:56:50.867202  7524 net.cpp:399] fc6_2 -> fc6_2
I0704 09:56:51.193220  7524 net.cpp:141] Setting up fc6_2
I0704 09:56:51.193220  7524 net.cpp:148] Top shape: 50 2048 (102400)
I0704 09:56:51.193220  7524 net.cpp:156] Memory required for data: 484576200
I0704 09:56:51.193220  7524 layer_factory.hpp:77] Creating layer relu6_2
I0704 09:56:51.193220  7524 net.cpp:91] Creating Layer relu6_2
I0704 09:56:51.193220  7524 net.cpp:425] relu6_2 <- fc6_2
I0704 09:56:51.193220  7524 net.cpp:386] relu6_2 -> fc6_2 (in-place)
I0704 09:56:51.195220  7524 net.cpp:141] Setting up relu6_2
I0704 09:56:51.195220  7524 net.cpp:148] Top shape: 50 2048 (102400)
I0704 09:56:51.195220  7524 net.cpp:156] Memory required for data: 484985800
I0704 09:56:51.195220  7524 layer_factory.hpp:77] Creating layer drop6_2
I0704 09:56:51.195220  7524 net.cpp:91] Creating Layer drop6_2
I0704 09:56:51.195220  7524 net.cpp:425] drop6_2 <- fc6_2
I0704 09:56:51.195220  7524 net.cpp:386] drop6_2 -> fc6_2 (in-place)
I0704 09:56:51.195220  7524 net.cpp:141] Setting up drop6_2
I0704 09:56:51.195220  7524 net.cpp:148] Top shape: 50 2048 (102400)
I0704 09:56:51.195220  7524 net.cpp:156] Memory required for data: 485395400
I0704 09:56:51.195220  7524 layer_factory.hpp:77] Creating layer fc7_2
I0704 09:56:51.195220  7524 net.cpp:91] Creating Layer fc7_2
I0704 09:56:51.195220  7524 net.cpp:425] fc7_2 <- fc6_2
I0704 09:56:51.195220  7524 net.cpp:399] fc7_2 -> fc7_2
I0704 09:56:51.230222  7524 net.cpp:141] Setting up fc7_2
I0704 09:56:51.230222  7524 net.cpp:148] Top shape: 50 1024 (51200)
I0704 09:56:51.230222  7524 net.cpp:156] Memory required for data: 485600200
I0704 09:56:51.230222  7524 layer_factory.hpp:77] Creating layer relu7_2
I0704 09:56:51.230222  7524 net.cpp:91] Creating Layer relu7_2
I0704 09:56:51.230222  7524 net.cpp:425] relu7_2 <- fc7_2
I0704 09:56:51.230222  7524 net.cpp:386] relu7_2 -> fc7_2 (in-place)
I0704 09:56:51.231222  7524 net.cpp:141] Setting up relu7_2
I0704 09:56:51.231222  7524 net.cpp:148] Top shape: 50 1024 (51200)
I0704 09:56:51.231222  7524 net.cpp:156] Memory required for data: 485805000
I0704 09:56:51.231222  7524 layer_factory.hpp:77] Creating layer drop7_2
I0704 09:56:51.231222  7524 net.cpp:91] Creating Layer drop7_2
I0704 09:56:51.231222  7524 net.cpp:425] drop7_2 <- fc7_2
I0704 09:56:51.231222  7524 net.cpp:386] drop7_2 -> fc7_2 (in-place)
I0704 09:56:51.231222  7524 net.cpp:141] Setting up drop7_2
I0704 09:56:51.231222  7524 net.cpp:148] Top shape: 50 1024 (51200)
I0704 09:56:51.231222  7524 net.cpp:156] Memory required for data: 486009800
I0704 09:56:51.231222  7524 layer_factory.hpp:77] Creating layer fc7_2_drop7_2_0_split
I0704 09:56:51.231222  7524 net.cpp:91] Creating Layer fc7_2_drop7_2_0_split
I0704 09:56:51.231222  7524 net.cpp:425] fc7_2_drop7_2_0_split <- fc7_2
I0704 09:56:51.231222  7524 net.cpp:399] fc7_2_drop7_2_0_split -> fc7_2_drop7_2_0_split_0
I0704 09:56:51.231222  7524 net.cpp:399] fc7_2_drop7_2_0_split -> fc7_2_drop7_2_0_split_1
I0704 09:56:51.231222  7524 net.cpp:141] Setting up fc7_2_drop7_2_0_split
I0704 09:56:51.231222  7524 net.cpp:148] Top shape: 50 1024 (51200)
I0704 09:56:51.231222  7524 net.cpp:148] Top shape: 50 1024 (51200)
I0704 09:56:51.231222  7524 net.cpp:156] Memory required for data: 486419400
I0704 09:56:51.231222  7524 layer_factory.hpp:77] Creating layer fc8_clf
I0704 09:56:51.231222  7524 net.cpp:91] Creating Layer fc8_clf
I0704 09:56:51.231222  7524 net.cpp:425] fc8_clf <- fc7_drop7_0_split_0
I0704 09:56:51.231222  7524 net.cpp:399] fc8_clf -> fc8
I0704 09:56:51.235222  7524 net.cpp:141] Setting up fc8_clf
I0704 09:56:51.235222  7524 net.cpp:148] Top shape: 50 250 (12500)
I0704 09:56:51.235222  7524 net.cpp:156] Memory required for data: 486469400
I0704 09:56:51.235222  7524 layer_factory.hpp:77] Creating layer fc8_fc8_clf_0_split
I0704 09:56:51.235222  7524 net.cpp:91] Creating Layer fc8_fc8_clf_0_split
I0704 09:56:51.235222  7524 net.cpp:425] fc8_fc8_clf_0_split <- fc8
I0704 09:56:51.235222  7524 net.cpp:399] fc8_fc8_clf_0_split -> fc8_fc8_clf_0_split_0
I0704 09:56:51.235222  7524 net.cpp:399] fc8_fc8_clf_0_split -> fc8_fc8_clf_0_split_1
I0704 09:56:51.235222  7524 net.cpp:141] Setting up fc8_fc8_clf_0_split
I0704 09:56:51.235222  7524 net.cpp:148] Top shape: 50 250 (12500)
I0704 09:56:51.235222  7524 net.cpp:148] Top shape: 50 250 (12500)
I0704 09:56:51.235222  7524 net.cpp:156] Memory required for data: 486569400
I0704 09:56:51.235222  7524 layer_factory.hpp:77] Creating layer accuracy
I0704 09:56:51.235222  7524 net.cpp:91] Creating Layer accuracy
I0704 09:56:51.235222  7524 net.cpp:425] accuracy <- fc8_fc8_clf_0_split_0
I0704 09:56:51.235222  7524 net.cpp:425] accuracy <- label_data_1_split_0
I0704 09:56:51.235222  7524 net.cpp:399] accuracy -> accuracy
…
