…
I1209 12:54:27.947649 12404 net.cpp:322] The NetState phase (0) differed from the phase (1) specified by a rule in layer accuracy
I1209 12:54:27.952658 12404 net.cpp:58] Initializing net from parameters: 
name: "LeNet"
state {
  phase: TRAIN
  level: 0
  stage: ""
}
layer {
  name: "mnist"
  type: "Data"
  top: "data"
  top: "label"
  include {
    phase: TRAIN
  }
  transform_param {
    scale: 0.00390625
  }
  data_param {
    source: "E:/caffe/caffe-windows/examples/mnist/mnist-train-leveldb"
    batch_size: 64
    backend: LEVELDB
  }
}
layer {
  name: "conv1"
  type: "Convolution"
  bottom: "data"
  top: "conv1"
  param {
    lr_mult: 1
  }
  param {
    lr_mult: 2
  }
  convolution_param {
    num_output: 20
    kernel_size: 5
    stride: 1
    weight_filler {
      type: "xavier"
    }
    bias_filler {
      type: "constant"
    }
  }
}
layer {
  name: "pool1"
  type: "Pooling"
  bottom: "conv1"
  top: "pool1"
  pooling_param {
    pool: MAX
    kernel_size: 2
    stride: 2
  }
}
layer {
  name: "conv2"
  type: "Convolution"
  bottom: "pool1"
  top: "conv2"
  param {
    lr_mult: 1
  }
  param {
    lr_mult: 2
  }
  convolution_param {
    num_output: 50
    kernel_size: 5
    stride: 1
    weight_filler {
      type: "xavier"
    }
    bias_filler {
      type: "constant"
    }
  }
}
layer {
  name: "pool2"
  type: "Pooling"
  bottom: "conv2"
  top: "pool2"
  pooling_param {
    pool: MAX
    kernel_size: 2
    stride: 2
  }
}
layer {
  name: "ip1"
  type: "InnerProduct"
  bottom: "pool2"
  top: "ip1"
  param {
    lr_mult: 1
  }
  param {
    lr_mult: 2
  }
  inner_product_param {
    num_output: 500
    weight_filler {
      type: "xavier"
    }
    bias_filler {
      type: "constant"
    }
  }
}
layer {
  name: "relu1"
  type: "ReLU"
  bottom: "ip1"
  top: "ip1"
}
layer {
  name: "ip2"
  type: "InnerProduct"
  bottom: "ip1"
  top: "ip2"
  param {
    lr_mult: 1
  }
  param {
    lr_mult: 2
  }
  inner_product_param {
    num_output: 10
    weight_filler {
      type: "xavier"
    }
    bias_filler {
      type: "constant"
    }
  }
}
layer {
  name: "loss"
  type: "SoftmaxWithLoss"
  bottom: "ip2"
  bottom: "label"
  top: "loss"
}
I1209 12:54:28.105773 12404 layer_factory.cpp:58] Creating layer mnist
I1209 12:54:28.107779 12404 common.cpp:40] System entropy source not available, using fallback algorithm to generate seed instead.
I1209 12:54:28.111778 12404 net.cpp:100] Creating Layer mnist
I1209 12:54:28.113780 12404 net.cpp:408] mnist -> data
I1209 12:54:28.114780 11056 common.cpp:40] System entropy source not available, using fallback algorithm to generate seed instead.
I1209 12:54:28.115799 12404 net.cpp:408] mnist -> label
I1209 12:54:28.168678 11056 db_leveldb.cpp:18] Opened leveldb E:/caffe/caffe-windows/examples/mnist/mnist-train-leveldb
I1209 12:54:28.315434 12404 data_layer.cpp:41] output data size: 64,1,28,28
I1209 12:54:28.322441 12404 net.cpp:150] Setting up mnist
I1209 12:54:28.325441 12404 net.cpp:157] Top shape: 64 1 28 28 (50176)
I1209 12:54:28.328444  8896 common.cpp:40] System entropy source not available, using fallback algorithm to generate seed instead.
I1209 12:54:28.329444 12404 net.cpp:157] Top shape: 64 (64)
I1209 12:54:28.334447  8896 blocking_queue.cpp:50] Waiting for data
I1209 12:54:28.369637 12404 net.cpp:165] Memory required for data: 200960
I1209 12:54:28.374640 12404 layer_factory.cpp:58] Creating layer conv1
I1209 12:54:28.376644 12404 net.cpp:100] Creating Layer conv1
I1209 12:54:28.378643 12404 net.cpp:434] conv1 <- data
I1209 12:54:28.380645 12404 net.cpp:408] conv1 -> conv1
I1209 12:54:28.888304 12404 net.cpp:150] Setting up conv1
I1209 12:54:28.890287 12404 net.cpp:157] Top shape: 64 20 24 24 (737280)
I1209 12:54:28.892288 12404 net.cpp:165] Memory required for data: 3150080
I1209 12:54:28.894289 12404 layer_factory.cpp:58] Creating layer pool1
I1209 12:54:28.896291 12404 net.cpp:100] Creating Layer pool1
I1209 12:54:28.898293 12404 net.cpp:434] pool1 <- conv1
I1209 12:54:28.900295 12404 net.cpp:408] pool1 -> pool1
I1209 12:54:29.170555 12404 net.cpp:150] Setting up pool1
I1209 12:54:29.172502 12404 net.cpp:157] Top shape: 64 20 12 12 (184320)
I1209 12:54:29.174502 12404 net.cpp:165] Memory required for data: 3887360
I1209 12:54:29.178505 12404 layer_factory.cpp:58] Creating layer conv2
I1209 12:54:29.181507 12404 net.cpp:100] Creating Layer conv2
I1209 12:54:29.183509 12404 net.cpp:434] conv2 <- pool1
I1209 12:54:29.186511 12404 net.cpp:408] conv2 -> conv2
I1209 12:54:29.194517 12404 net.cpp:150] Setting up conv2
I1209 12:54:29.198520 12404 net.cpp:157] Top shape: 64 50 8 8 (204800)
I1209 12:54:29.203523 12404 net.cpp:165] Memory required for data: 4706560
I1209 12:54:29.207525 12404 layer_factory.cpp:58] Creating layer pool2
I1209 12:54:29.211529 12404 net.cpp:100] Creating Layer pool2
I1209 12:54:29.214531 12404 net.cpp:434] pool2 <- conv2
I1209 12:54:29.218534 12404 net.cpp:408] pool2 -> pool2
I1209 12:54:29.221536 12404 net.cpp:150] Setting up pool2
I1209 12:54:29.225539 12404 net.cpp:157] Top shape: 64 50 4 4 (51200)
I1209 12:54:29.229542 12404 net.cpp:165] Memory required for data: 4911360
I1209 12:54:29.233546 12404 layer_factory.cpp:58] Creating layer ip1
I1209 12:54:29.240556 12404 net.cpp:100] Creating Layer ip1
I1209 12:54:29.244057 12404 net.cpp:434] ip1 <- pool2
I1209 12:54:29.246558 12404 net.cpp:408] ip1 -> ip1
I1209 12:54:29.261034 12404 net.cpp:150] Setting up ip1
I1209 12:54:29.263036 12404 net.cpp:157] Top shape: 64 500 (32000)
I1209 12:54:29.266041 12404 net.cpp:165] Memory required for data: 5039360
I1209 12:54:29.268039 12404 layer_factory.cpp:58] Creating layer relu1
I1209 12:54:29.271041 12404 net.cpp:100] Creating Layer relu1
I1209 12:54:29.273042 12404 net.cpp:434] relu1 <- ip1
I1209 12:54:29.274046 12404 net.cpp:395] relu1 -> ip1 (in-place)
I1209 12:54:29.278046 12404 net.cpp:150] Setting up relu1
I1209 12:54:29.280050 12404 net.cpp:157] Top shape: 64 500 (32000)
I1209 12:54:29.284052 12404 net.cpp:165] Memory required for data: 5167360
I1209 12:54:29.286054 12404 layer_factory.cpp:58] Creating layer ip2
I1209 12:54:29.288053 12404 net.cpp:100] Creating Layer ip2
I1209 12:54:29.290055 12404 net.cpp:434] ip2 <- ip1
I1209 12:54:29.292057 12404 net.cpp:408] ip2 -> ip2
I1209 12:54:29.295058 12404 net.cpp:150] Setting up ip2
I1209 12:54:29.298061 12404 net.cpp:157] Top shape: 64 10 (640)
I1209 12:54:29.301064 12404 net.cpp:165] Memory required for data: 5169920
I1209 12:54:29.304064 12404 layer_factory.cpp:58] Creating layer loss
I1209 12:54:29.308082 12404 net.cpp:100] Creating Layer loss
I1209 12:54:29.309068 12404 net.cpp:434] loss <- ip2
I1209 12:54:29.312070 12404 net.cpp:434] loss <- label
I1209 12:54:29.314071 12404 net.cpp:408] loss -> loss
I1209 12:54:29.316073 12404 layer_factory.cpp:58] Creating layer loss
…
I1209 12:54:29.354792 12404 solver.cpp:181] Creating test net (#0) specified by net file: E:/caffe/caffe-windows/examples/mnist/lenet_train_test.prototxt
I1209 12:54:29.358793 12404 net.cpp:322] The NetState phase (1) differed from the phase (0) specified by a rule in layer mnist
I1209 12:54:29.362802 12404 net.cpp:58] Initializing net from parameters: 
name: "LeNet"
state {
  phase: TEST
}
layer {
  name: "mnist"
  type: "Data"
  top: "data"
  top: "label"
  include {
    phase: TEST
  }
  transform_param {
    scale: 0.00390625
  }
  data_param {
    source: "E:/caffe/caffe-windows/examples/mnist/mnist-test-leveldb"
    batch_size: 100
    backend: LEVELDB
  }
}
layer {
  name: "conv1"
  type: "Convolution"
  bottom: "data"
  top: "conv1"
  param {
    lr_mult: 1
  }
  param {
    lr_mult: 2
  }
  convolution_param {
    num_output: 20
    kernel_size: 5
    stride: 1
    weight_filler {
      type: "xavier"
    }
    bias_filler {
      type: "constant"
    }
  }
}
layer {
  name: "pool1"
  type: "Pooling"
  bottom: "conv1"
  top: "pool1"
  pooling_param {
    pool: MAX
    kernel_size: 2
    stride: 2
  }
}
layer {
  name: "conv2"
  type: "Convolution"
  bottom: "pool1"
  top: "conv2"
  param {
    lr_mult: 1
  }
  param {
    lr_mult: 2
  }
  convolution_param {
    num_output: 50
    kernel_size: 5
    stride: 1
    weight_filler {
      type: "xavier"
    }
    bias_filler {
      type: "constant"
    }
  }
}
layer {
  name: "pool2"
  type: "Pooling"
  bottom: "conv2"
  top: "pool2"
  pooling_param {
    pool: MAX
    kernel_size: 2
    stride: 2
  }
}
layer {
  name: "ip1"
  type: "InnerProduct"
  bottom: "pool2"
  top: "ip1"
  param {
    lr_mult: 1
  }
  param {
    lr_mult: 2
  }
  inner_product_param {
    num_output: 500
    weight_filler {
      type: "xavier"
    }
    bias_filler {
      type: "constant"
    }
  }
}
layer {
  name: "relu1"
  type: "ReLU"
  bottom: "ip1"
  top: "ip1"
}
layer {
  name: "ip2"
  type: "InnerProduct"
  bottom: "ip1"
  top: "ip2"
  param {
    lr_mult: 1
  }
  param {
    lr_mult: 2
  }
  inner_product_param {
    num_output: 10
    weight_filler {
      type: "xavier"
    }
    bias_filler {
      type: "constant"
    }
  }
}
layer {
  name: "accuracy"
  type: "Accuracy"
  bottom: "ip2"
  bottom: "label"
  top: "accuracy"
  include {
    phase: TEST
  }
}
layer {
  name: "loss"
  type: "SoftmaxWithLoss"
  bottom: "ip2"
  bottom: "label"
  top: "loss"
}
I1209 12:54:29.489895 12404 layer_factory.cpp:58] Creating layer mnist
I1209 12:54:29.492897 12404 net.cpp:100] Creating Layer mnist
I1209 12:54:29.495899 12404 net.cpp:408] mnist -> data
I1209 12:54:29.497901   888 common.cpp:40] System entropy source not available, using fallback algorithm to generate seed instead.
I1209 12:54:29.498901 12404 net.cpp:408] mnist -> label
I1209 12:54:29.550945   888 db_leveldb.cpp:18] Opened leveldb E:/caffe/caffe-windows/examples/mnist/mnist-test-leveldb
I1209 12:54:29.941874 12404 data_layer.cpp:41] output data size: 100,1,28,28
I1209 12:54:29.950881 12404 net.cpp:150] Setting up mnist
I1209 12:54:29.954166 12404 net.cpp:157] Top shape: 100 1 28 28 (78400)
I1209 12:54:29.957170 12404 net.cpp:157] Top shape: 100 (100)
I1209 12:54:29.959172 14864 common.cpp:40] System entropy source not available, using fallback algorithm to generate seed instead.
I1209 12:54:29.960170 12404 net.cpp:165] Memory required for data: 314000
I1209 12:54:29.966178 12404 layer_factory.cpp:58] Creating layer label_mnist_1_split
I1209 12:54:29.971179 12404 net.cpp:100] Creating Layer label_mnist_1_split
I1209 12:54:29.976182 12404 net.cpp:434] label_mnist_1_split <- label
I1209 12:54:29.979184 12404 net.cpp:408] label_mnist_1_split -> label_mnist_1_split_0
I1209 12:54:29.983186 12404 net.cpp:408] label_mnist_1_split -> label_mnist_1_split_1
I1209 12:54:29.987190 12404 net.cpp:150] Setting up label_mnist_1_split
I1209 12:54:29.989192 12404 net.cpp:157] Top shape: 100 (100)
I1209 12:54:29.991196 12404 net.cpp:157] Top shape: 100 (100)
I1209 12:54:29.994197 12404 net.cpp:165] Memory required for data: 314800
I1209 12:54:29.996196 12404 layer_factory.cpp:58] Creating layer conv1
I1209 12:54:29.999202 12404 net.cpp:100] Creating Layer conv1
I1209 12:54:30.002220 12404 net.cpp:434] conv1 <- data
I1209 12:54:30.004204 12404 net.cpp:408] conv1 -> conv1
I1209 12:54:30.010206 12404 net.cpp:150] Setting up conv1
I1209 12:54:30.013227 12404 net.cpp:157] Top shape: 100 20 24 24 (1152000)
I1209 12:54:30.016211 12404 net.cpp:165] Memory required for data: 4922800
I1209 12:54:30.019212 12404 layer_factory.cpp:58] Creating layer pool1
I1209 12:54:30.021214 12404 net.cpp:100] Creating Layer pool1
I1209 12:54:30.023218 12404 net.cpp:434] pool1 <- conv1
I1209 12:54:30.025216 12404 net.cpp:408] pool1 -> pool1
I1209 12:54:30.028221 12404 net.cpp:150] Setting up pool1
I1209 12:54:30.032222 12404 net.cpp:157] Top shape: 100 20 12 12 (288000)
I1209 12:54:30.035224 12404 net.cpp:165] Memory required for data: 6074800
I1209 12:54:30.039232 12404 layer_factory.cpp:58] Creating layer conv2
I1209 12:54:30.042734 12404 net.cpp:100] Creating Layer conv2
I1209 12:54:30.045738 12404 net.cpp:434] conv2 <- pool1
I1209 12:54:30.049242 12404 net.cpp:408] conv2 -> conv2
I1209 12:54:30.057896 12404 net.cpp:150] Setting up conv2
I1209 12:54:30.061899 12404 net.cpp:157] Top shape: 100 50 8 8 (320000)
I1209 12:54:30.065902 12404 net.cpp:165] Memory required for data: 7354800
I1209 12:54:30.068904 12404 layer_factory.cpp:58] Creating layer pool2
I1209 12:54:30.070905 12404 net.cpp:100] Creating Layer pool2
I1209 12:54:30.072907 12404 net.cpp:434] pool2 <- conv2
I1209 12:54:30.074911 12404 net.cpp:408] pool2 -> pool2
I1209 12:54:30.076910 12404 net.cpp:150] Setting up pool2
I1209 12:54:30.078914 12404 net.cpp:157] Top shape: 100 50 4 4 (80000)
I1209 12:54:30.082916 12404 net.cpp:165] Memory required for data: 7674800
I1209 12:54:30.084918 12404 layer_factory.cpp:58] Creating layer ip1
I1209 12:54:30.087918 12404 net.cpp:100] Creating Layer ip1
I1209 12:54:30.089920 12404 net.cpp:434] ip1 <- pool2
I1209 12:54:30.091922 12404 net.cpp:408] ip1 -> ip1
I1209 12:54:30.106931 12404 net.cpp:150] Setting up ip1
I1209 12:54:30.108935 12404 net.cpp:157] Top shape: 100 500 (50000)
I1209 12:54:30.111937 12404 net.cpp:165] Memory required for data: 7874800
I1209 12:54:30.114938 12404 layer_factory.cpp:58] Creating layer relu1
I1209 12:54:30.116941 12404 net.cpp:100] Creating Layer relu1
I1209 12:54:30.118940 12404 net.cpp:434] relu1 <- ip1
I1209 12:54:30.120944 12404 net.cpp:395] relu1 -> ip1 (in-place)
I1209 12:54:30.125946 12404 net.cpp:150] Setting up relu1
I1209 12:54:30.128948 12404 net.cpp:157] Top shape: 100 500 (50000)
I1209 12:54:30.130950 12404 net.cpp:165] Memory required for data: 8074800
I1209 12:54:30.133952 12404 layer_factory.cpp:58] Creating layer ip2
I1209 12:54:30.136958 12404 net.cpp:100] Creating Layer ip2
I1209 12:54:30.140461 12404 net.cpp:434] ip2 <- ip1
I1209 12:54:30.142962 12404 net.cpp:408] ip2 -> ip2
I1209 12:54:30.145464 12404 net.cpp:150] Setting up ip2
I1209 12:54:30.147466 12404 net.cpp:157] Top shape: 100 10 (1000)
I1209 12:54:30.149969 12404 net.cpp:165] Memory required for data: 8078800
I1209 12:54:30.152469 12404 layer_factory.cpp:58] Creating layer ip2_ip2_0_split
I1209 12:54:30.155478 12404 net.cpp:100] Creating Layer ip2_ip2_0_split
I1209 12:54:30.158478 12404 net.cpp:434] ip2_ip2_0_split <- ip2
I1209 12:54:30.160478 12404 net.cpp:408] ip2_ip2_0_split -> ip2_ip2_0_split_0
I1209 12:54:30.163483 12404 net.cpp:408] ip2_ip2_0_split -> ip2_ip2_0_split_1
I1209 12:54:30.166486 12404 net.cpp:150] Setting up ip2_ip2_0_split
I1209 12:54:30.169486 12404 net.cpp:157] Top shape: 100 10 (1000)
I1209 12:54:30.171486 12404 net.cpp:157] Top shape: 100 10 (1000)
I1209 12:54:30.173487 12404 net.cpp:165] Memory required for data: 8086800
I1209 12:54:30.175489 12404 layer_factory.cpp:58] Creating layer accuracy
I1209 12:54:30.177490 12404 net.cpp:100] Creating Layer accuracy
I1209 12:54:30.179491 12404 net.cpp:434] accuracy <- ip2_ip2_0_split_0
I1209 12:54:30.181495 12404 net.cpp:434] accuracy <- label_mnist_1_split_0
I1209 12:54:30.183495 12404 net.cpp:408] accuracy -> accuracy
…
